model.bin (torch, 60472 bytes, 26 tensors)

linear1.weight f4 [128, 9]
00000000: 2c8d e6bb aa59 193d 068c 96bf 7d75 cc3f
00000010: 709d e03f ec15 2b3d 5e13 97bd d9d9 8b3d
00000020: e9fe 02bd 65a2 143d 3d2b 7bbe b45f a8bf
00000030: 5029 d7bf a814 c53f 83cf f43e 32fa 0ebe
00000040: aa71 aebe 741a df3e dc2d d5bb da5a 8bbd
00000050: cf70 c5bc 6031 793d 9a7e 303c e6cb d83c
00000060: 57a0 373d 465f cabb 81c1 8bbd bfa2 a1bb
00000070: 47d0 10bd 7f39 4b3d 9e62 923c 5a78 68bc
00000080: cdcd e3bc 3958 0d3d c6f7 0f3d 8f7b 1cbd
00000090: 78bc 2101 d0c9 6e00 ccc2 8b81 ecfc 8701
000000a0: b86f 6100 08e7 3481 e4d2 9400 66ea b181
000000b0: 841a 7780 85aa 93bd d51a 1e3c e9ff e23f
000000c0: 22b0 c03f 096e a43f f5fc 8fbc 468b 673c
000000d0: 50b9 6fbd 2ca7 b33d 2bd1 853d 78ff 1bbd
000000e0: db98 c7bf 4bf0 2a3e ec9d 65c0 f157 333c
000000f0: 862b 673c 3a88 d43d c9a7 783e a236 253e
00000100: f6f7 db3d ec84 e23f 8b64 b13e be89 5740
00000110: 1fc4 9c3d bf69 493c aabc 9f3d ba77 7d3d
00000120: a50a f53e 143a 893e 57ca da3d 978b 3bbe
00000130: c086 8cbd 1fad c5b8 55ba 183e b8cc 5d3e
00000140: e3e8 c13d 0988 d33b 36f2 6fbd f93e a3bf
00000150: 5fff 0640 695e 3a3f d570 6b3f 067a 8dbd
00000160: f961 4b3c 4235 febe 192b 5a3d 7912 14be
00000170: e64b 7b3f 2943 2e40 b7c4 acbf 26b4 abbd
00000180: 35b8 6f3d 42e8 953c cd3d 763e 04ca db3d
00000190: c01d b3bd 58a9 c53f 13eb 4fbe b348 0dc0
000001a0: 93a7 6d3d ab11 a73c bec3 f3bd 6c31 4f3c
000001b0: ea53 5180 79ee 9681 7d9d 9681 df82 3200
000001c0: 989c b801 28b2 2700 bb07 aa00 a452 a181
000001d0: 9a99 bc00 0b12 573d d091 ce3d 45b6 4ebe
000001e0: 105b 48c0 9adb f63f 30d7 183d 925e cdbe
000001f0: f626 953e dd97 ffbd f361 da3d 0a28 bebc
00000200: 4b7b b83f 216d 973f a7af 08c0 405a 813d
00000210: 2070 a7bb 2b68 0e3d f430 27be b6a7 30be
00000220: 34a0 e83b 3683 08bd 47c0 6a3d 3481 c2ba
00000230: 0fe7 fdbe 813c c7b9 f7b1 053b 38ee ed3c
00000240: eaf1 513e da34 c33e ca26 fdbd 75e2 43c0
00000250: 5999 f23f cda0 393e 456d 58be 9d20 afbd
00000260: 14d9 4fbd 2091 f7bd bdde f23c 386f a63d
00000270: 48f4 7ebd 2405 99bd f163 fa39 6c8d 97bd
00000280: 4e49 973a 92c8 bcbd 8ce6 903d 399e 163c
00000290: 4d26 bdbc 7ab5 3dbe ebce 813c dd9f 733c
000002a0: 090b d93c 2ddf 87bc 856b e83c b733 403c
000002b0: e8c7 c7bd 2bca d43f 4ba9 41bf 7f75 0ec0
000002c0: d429 1f3d fcbc 64bd 1c13 c7bd 9e1e 983d
000002d0: 2ca1 bd3d cac9 2fbe 13b9 a43d 26dd 23bc
000002e0: 8de8 e53c 090f 0c3e 0fe7 b23d 6827 aa3d
000002f0: e2a6 b13c 873d 48be 810e f4bd 5e43 2f3f
00000300: 7edb 2c40 aa96 bebf 5096 01be 0a37 4f3d
00000310: 5c87 033d 6b54 93bd cf04 a6bd e24d 8abe
00000320: ad8a 2b3f b211 25bf f7ee a1c0 b7f4 843c
00000330: ded9 98bd 2efe 103e 788a 7abe 9237 3e3e
00000340: 9207 423b 5d4a e83e 4a3e 9140 6c28 b5be
00000350: cfa8 cabc 0401 4dbe 7c17 1b3e e591 283c
00000360: 5c18 a7bd 6c76 833d 109d b93f c980 833f
00000370: 0f32 0fc0 77f8 913d 5faa 46bd b362 823d
00000380: c70a b83c c8d6 52bc d435 31bc 8a76 da3f
00000390: 915e 7f3e 361e 20c0 c542 32bc 2491 4d3d
000003a0: 4d6a 5bba cdae a6bd db6d cc3d 7941 ecbc
000003b0: 409f cdbf e972 3abf 5a1a 1140 4fba 6abe
000003c0: dcf7 e4bc 544f 8abc 4239 213d 9676 4fbd
000003d0: 671c 00be 2da3 ed3f 00bc 0c3e 8c25 15c0
000003e0: 31ba 51bd 9970 d63d 663d f93d f69d 0d3d
000003f0: 6319 3f3d 61ea 38bd d6aa 9c3f 0f0d efbf
-0.007035872 0.037439026 -1.1761482 1.5973355 1.7548046 0.041768953 -0.07376741 0.068286605
-0.031981383 0.036287684 -0.24528213 -1.3154206 -1.6809483 1.5396929 0.4781457 -0.1396263
-0.34071094 0.4357487 -0.006505711 -0.06804438 -0.024101643 0.060838103 0.010772372 0.026464414
0.044830646 -0.0061759083 -0.06824017 -0.004932731 -0.03535488 0.04961538 0.01786929 -0.01418885
-0.027808094 0.034507964 0.035148405 -0.038203772 2.970625e-38 1.0174301e-38 -5.1340056e-38 4.9954093e-38
8.94812e-39 -3.3226535e-38 1.3667307e-38 -6.5355877e-38 -1.0937936e-38 -0.072102584 0.009649952 1.7734348
1.5053751 1.284608 -0.017576674 0.0141323265 -0.058526337 0.0877212 0.06534036 -0.03808543
-1.5593523 0.16693227 -3.5877638 0.01094626 0.014109498 0.10377546 0.24282755 0.16134122
0.10740654 1.7696815 0.3464702 3.367782 0.07654595 0.012293278 0.07799657 0.06188176
0.47859684 0.26802123 0.106831245 -0.18314968 -0.06861639 -9.425938e-05 0.1491483 0.21660125
0.09468248 0.0064554256 -0.0585806 -1.2753593 2.1093366 0.7280031 0.91969043 -0.0690804
0.012413495 -0.49650007 0.053263757 -0.14460172 0.98162687 2.7228491 -1.3497533 -0.0838397
0.058525283 0.018299226 0.24047013 0.10731891 -0.08745909 1.5442305 -0.20304517 -2.2075622
0.05802114 0.020394167 -0.11902569 0.01264606 -7.468778e-39 -5.544349e-38 -5.532728e-38 4.638723e-39
6.7815626e-38 3.645495e-39 1.5614808e-38 -5.9260643e-38 1.7320175e-38 0.05250744 0.10086405 -0.20186718
-3.130558 1.9285767 0.037314594 -0.40111214 0.29131287 -0.124801375 0.106632136 -0.023212451
1.4412626 1.1830178 -2.135721 0.06316042 -0.005109802 0.03476731 -0.16327268 -0.17251477
0.007099176 -0.033328258 0.057312276 -0.0014839531 -0.49590346 -0.00038001317 0.0020400265 0.029044256
0.20502439 0.3812626 -0.12360914 -3.0606968 1.8953048 0.18127747 -0.21135433 -0.08551142
-0.05074413 -0.12088227 0.029647226 0.08126682 -0.062244684 -0.074716836 0.00047758178 -0.07400021
0.0011542232 -0.09217943 0.07075223 0.009192997 -0.023089552 -0.18526259 0.015845736 0.014869657
0.02649452 -0.01658591 0.028371582 0.01173108 -0.09754926 1.6624197 -0.75648946 -2.2259214
0.03885825 -0.055844292 -0.09720442 0.07427715 0.09259257 -0.1716682 0.080431126 -0.010001456
0.02806499 0.1367761 0.08735477 0.083082974 0.021686021 -0.19554721 -0.11916829 0.6846217
2.7008967 -1.4889729 -0.12654996 0.0505896 0.03211151 -0.07193836 -0.08106386 -0.27012545
0.6700848 -0.64480126 -5.0604205 0.01622997 -0.0746343 0.14159462 -0.24466884 0.18575886
0.0029606563 0.45369235 4.5388536 -0.35382402 -0.024738697 -0.20019919 0.15145677 0.01028869
-0.08158943 0.064190716 1.4501057 1.0273677 -2.2374303 0.07127469 -0.048502322 0.06366482
0.022466077 -0.012868591 -0.010816056 1.7067425 0.24938418 -2.501844 -0.010880177 0.050187245
-0.0008370027 -0.08138809 0.09981891 -0.028839814 -1.6064224 -0.7283159 2.2672334 -0.22922634
-0.02795022 -0.01688353 0.039361246 -0.0506502 -0.12510835 1.8565422 0.13743591 -2.3304167
-0.051202957 0.10470695 0.12169914 0.03457447 0.04665507 -0.045145396 1.2239635 -1.867586

linear1.bias f4 [128]
00000000: f05d 8d3f 62cb ca3f bcb5 7780 5855 97bc
00000010: 38ce 2701 b16f a1bf 86a3 6a3f 0f2d d7bf
00000020: 5662 75be a180 b7bf a730 82be 1902 15be
00000030: 484a 1081 03d2 52bf 94f6 013f ade3 fc3a
00000040: 98a7 e4be 1a1d 00be 1309 4d01 807c 983e
00000050: b9af da3d f403 033f fcce febe ec7d 48bd
00000060: 7a15 6c3f 4520 e43e 2d1b d73e 8fe3 0e3e
00000070: 05db 12bf dd85 7200 ddf0 f7be be67 7abe
00000080: f441 803c cd15 64bf 8024 8000 b4d8 aabc
00000090: c096 7600 eadd 9701 e1ac eabc 5b2e 4bbe
000000a0: f041 93ba 2a52 78bf 33b0 92be deff 85be
000000b0: 612b fabf 9a8c 3080 7332 31bf eb5c 0e40
000000c0: 4ae9 8a00 e1a5 213e fbe6 cf3d 9a75 003f
000000d0: 002e 8200 d6c8 8501 9bee 4f00 5da3 62b8
000000e0: a850 7381 8388 71be 2550 1d3e abba 473f
000000f0: 7837 e4be 6433 353c ab4f 09bf bb29 5d3f
00000100: ee5b 7680 562a 31bf 6797 8bbe 0e2c f73c
00000110: 421d 3bbd 009b 0380 529f 85b9 48ce 07bf
00000120: 9db3 b93d d78b 2940 c00f b601 359b 23c0
00000130: 2fa0 633f 4060 9481 8047 0f00 96e8 bfbe
00000140: f08c d300 6fc3 3e3f 7d6c cd3f cd18 093e
00000150: 217d 9b3f e0a9 ea3f 7155 8100 58c9 0100
00000160: 1731 a63f bbfa 793f 7cc7 a6bd 14c4 823f
00000170: aa98 c3bf adb1 063f ac43 ccbb 004f dc80
00000180: bf58 5d3d 05f3 6c3f acb9 bf3d 8476 cbbe
00000190: 0205 833e 4051 b781 f7d1 8200 0f4c 12bf
000001a0: d0eb 673f 7669 10c0 24dd 0bbf f531 9cbe
000001b0: ed45 903e f6c7 43bf 00aa 2601 0f9b 53b6
000001c0: 7eaf 7680 1d27 2a3f 5e24 9e3e 30db 2fbf
000001d0: 595d 053f 2920 46bf 12c0 ff3c 74ff de3f
000001e0: 09b0 a13e f642 98be 85ac 8a3f 4a7d c9ba
000001f0: 1710 a0bd cbf2 473f f626 433e a461 cebe
1.1044292 1.5843318 -1.0993618e-38 -0.018473312 3.082101e-38 -1.261221 0.91655767 -1.6810626
-0.23963293 -1.433613 -0.25427744 -0.14551581 -2.6501917e-38 -0.823517 0.50766873 0.0019293927
-0.44659114 -0.12511101 3.7659064e-38 0.29782486 0.10678048 0.51177907 -0.49767292 -0.048948213
0.9222027 0.4455587 0.4201292 0.13953994 -0.5736545 1.0517268e-38 -0.48425952 -0.24453637
0.015656449 -0.89095765 1.1768037e-38 -0.020855285 1.0890667e-38 5.578707e-38 -0.028646888 -0.19841902
-0.0011234861 -0.9700037 -0.28650054 -0.26171774 -1.9544488 -4.458542e-39 -0.69217604 2.2244213
1.2756987e-38 0.15785934 0.10151478 0.50179446 1.1955116e-38 4.914467e-38 7.3406e-39 -5.4034743e-05
-4.468992e-38 -0.23587231 0.15362604 0.7801921 -0.4457357 0.011059616 -0.5363719 0.863918
-1.0869567e-38 -0.69205225 -0.27263948 0.030172374 -0.0456822 -3.3111e-40 -0.0002548644 -0.53049135
0.09067462 2.6491601 6.687884e-38 -2.556348 0.88916296 -5.4504726e-38 1.403182e-39 -0.37482136
1.9427849e-38 0.7451696 1.6048733 0.13388367 1.2147561 1.8333092 1.187743e-38 1.64064e-40
1.2983731 0.9764821 -0.081435174 1.0216088 -1.5280964 0.5261486 -0.006233653 -2.0232149e-38
0.054039713 0.9255832 0.09361586 -0.39738858 0.25589758 -6.734017e-38 1.2013936e-38 -0.57147306
0.90594196 -2.2564368 -0.5463431 -0.30506864 0.2817835 -0.7647699 3.0611354e-38 -3.1531706e-06
-1.0899543e-38 0.6646593 0.3088712 -0.6869383 0.5209556 -0.7739282 0.031219516 1.7421708
0.31579617 -0.29738587 1.0833899 -0.0015372422 -0.07815569 0.7810485 0.19057831 -0.4030887

bn1.weight f4 [128]
00000000: f21b cd3f b8ad 103f 9acb 24bc d270 e53b
00000010: bf8a 9c00 3aa1 463f b949 8a3f fba4 843f
00000020: 9c76 003d d8f0 0e3e 2efb 913f cc62 843f
00000030: a5fc 4c00 56d3 783f 26be 853f 4d69 033f
00000040: 853b 7c3f 3721 b6bb a353 873e 85f4 b53f
00000050: ac3b 91bd 2660 0b3f e77f 823f 1018 8e3f
00000060: e73f 853f 8eeb a53f 5dee 3f3f 8562 a43f
00000070: 4eb9 c23f 86f1 ba3c 0987 503f cf7a 993f
00000080: d2be 743b d8c8 ef3e b75a 1cbc 1b13 573f
00000090: 7ba1 f33e cc86 3981 84de e5be 0632 c33f
000000a0: a904 433e 5f32 453f 8ecc 983f 9776 d73e
000000b0: b299 8c3f fc37 c4bb cd1b 933f 6158 a33f
000000c0: 50b9 b3ba a7c6 883f fd4f 973f dd4f 9f3f
000000d0: 8f05 be80 c3b8 a301 7bcc 963a c98b 9dbb
000000e0: ca53 9481 9578 ed3c 7a46 ccbd 2a6f 733f
000000f0: d56f 403f ad8a 093c 07bb 3f3f ef02 8d3f
00000100: d64e 583d ef58 893f 6f28 5c3f 221d a63b
00000110: e39d 95bc 4088 f800 8869 3a3c dfb3 f73e
00000120: f008 993f f174 613f c09a 8081 1b4a 7d3f
00000130: 44c5 553f 8071 6601 4d49 6681 ad8c 023d
00000140: a22f 1a01 373a af3f afb1 5f3f 9e3b 9c3c
00000150: 1f43 b93f 7dfa 8a3f d22c 9bbb 821c f480
00000160: 60a8 ed3e a665 fb3e dad5 da3d c9e5 923f
00000170: a959 9a3f e3e7 e13f e22d c33e 786e f200
00000180: 7439 6abc 979a ac3f 5fb0 993f 7285 f73e
00000190: c909 7d3f 80cb b981 e2c2 02bc 943d 063f
000001a0: d4a7 3c3f 5607 9c3f 800d d63f c0e7 ab3e
000001b0: 84c5 b73e 93b5 a13e 802c b501 7a45 18bb
000001c0: b20b 233b 6751 893e e382 9f3f 4e55 103f
000001d0: 0d38 ad3f adae a93f d7be 933e d7da 183f
000001e0: c273 c93f 839d 803f cfdc 363f 29f4 0d3c
000001f0: 0d5c 7cbc d18c 9a3f 1dec 8d3f b392 4c3e
1.6024153 0.56515074 -0.010058308 0.0070019746 1.437611e-38 0.7758976 1.0803748 1.0362848
0.031363115 0.13959062 1.1404779 1.034265 7.07013e-39 0.97197473 1.0448654 0.5133255
0.9852832 -0.0055581587 0.26430997 1.4215246 -0.0709146 0.54443586 1.0195283 1.1101093
1.0410126 1.296251 0.7497309 1.2842566 1.52128 0.022820245 0.8145605 1.1990603
0.0037345183 0.4683292 -0.0095431125 0.8401353 0.47584137 -3.4075846e-38 -0.44896328 1.5249641
0.19044746 0.77029985 1.1937425 0.42082664 1.0984404 -0.005988119 1.1492859 1.2761346
-0.0013711844 1.0685624 1.1821285 1.2446247 -1.7450738e-38 6.0141864e-38 0.0011505032 -0.0048079235
-5.4486845e-38 0.028988162 -0.0997438 0.950915 0.7517064 0.008394879 0.74894756 1.101652
0.05280956 1.0730265 0.85999197 0.005069391 -0.018263763 2.282408e-38 0.0113777 0.48379418
1.1955853 0.88069063 -4.724183e-38 0.989412 0.8350413 4.232576e-38 -4.229692e-38 0.03187244
2.8319508e-38 1.3689641 0.873805 0.019071396 1.4473609 1.0857693 -0.0047355676 -2.2418088e-38
0.46417522 0.4910099 0.1068532 1.1476375 1.2058612 1.7648891 0.38120943 2.2263819e-38
-0.014295924 1.3484677 1.2006949 0.48343998 0.98843056 -6.8250275e-38 -0.007981034 0.5243771
0.73693585 1.2189739 1.672287 0.3357525 0.3589288 0.31583843 6.6552754e-38 -0.002323477
0.0024878797 0.26819918 1.2461818 0.56380165 1.353273 1.3256432 0.28856537 0.59708923
1.5738451 1.0048069 0.7143068 0.008664169 -0.015402806 1.2074224 1.1087681 0.19977836

bn1.bias f4 [128]
00000000: 2769 9bbf 1ee3 38bf 90ec 60bd 7e00 d8bc
00000010: d51c 02bd e551 dcbe d42f b0bf b500 a3bf
00000020: 9d8b d4bd 62c8 623d c5b4 bdbe b61a 673e
00000030: 3215 e5bc 6550 bcbf bcad 483e 644c d3bf
00000040: 3586 c4bf d2be 0fbd 34e2 42bf e192 f8bd
00000050: 7d8d 973d 2704 c03e c542 3dbf e1f2 95bf
00000060: 8854 53bf 0b40 4ebf 16cf 16be d483 5ebf
00000070: 536d 8ebf e6c0 4ebd 0b21 01bf d1a5 8cbf
00000080: dabb 1ebe e999 ca3e cdb7 03bd 7f1f 8dbf
00000090: 25da bebf c2e9 f8bc b37d 55be d20b 86bf
000000a0: 3211 24bf 6856 cdbf b3ce d5bf 25e4 fb3d
000000b0: a59f 36bf 1e9b 0cbd 7e1a 74bf 2640 27bf
000000c0: dadb 4abd 9740 7b3e a688 c4bf 20a0 26bf
000000d0: 72b4 12bc fd6f f1b9 4295 33bc 8439 45bd
000000e0: 1316 02bd d709 adbd 39c4 313c 0df8 32bf
000000f0: e94b e5bd 0f9d 6abd de71 8abf e9f7 88bf
00000100: d00b 6abe b25d dabe f970 b8bf b114 aabc
00000110: afab 873e fb78 aa8b cb4a dfbd a05d b8bf
00000120: 54f1 d0bf 24c9 92bf 15d8 fbbc be16 7ebf
00000130: 7e0e a1be fd99 c49d 6114 ecba 3abc cf3d
00000140: fc51 eabc 9d39 05bf 12fa 85bf 1e09 c63d
00000150: cf12 7abf be78 41bf 9dcf 31ba 3bef dbbc
00000160: fb78 06bf 78c3 e5bb b2ac 463d 2ad2 bbbf
00000170: fcb8 09bf 660a 9fbf 7b51 98bf 7dcb e5bc
00000180: 18c0 82bd 0749 82bf 0e86 06bf b88e bb3e
00000190: 8360 8fbf 0528 16bc 3682 3dbd 183c c03e
000001a0: 6153 90bf 0c2c bfbf a920 94bf 938f 123e
000001b0: 908e 4f3e 0714 09bc 9e1c 75bb c9f9 88bc
000001c0: 9702 c1bc e36e ed3d bc7c 4bbf 474a 123e
000001d0: fad0 f6be 2373 52bf ed31 1fbe ce0d eb3e
000001e0: 2d92 8abf d8cf afbf d019 3ebf ee6f 37bd
000001f0: 072a 4abd de43 f8bf 1c78 1bbf e76a 21bf
-1.2141465 -0.72221553 -0.054913104 -0.026367422 -0.031765778 -0.4303123 -1.3764596 -1.2734591
-0.103781916 0.05536688 -0.3705198 0.22568783 -0.027964208 -1.4712034 0.19597524 -1.6507688
-1.5353457 -0.03509409 -0.7612641 -0.1213739 0.074000336 0.37503168 -0.7393001 -1.1714746
-0.8255086 -0.8056647 -0.14727435 -0.86919904 -1.1127113 -0.05047693 -0.50441045 -1.0988103
-0.15501347 0.3957055 -0.032157708 -1.1025237 -1.4910322 -0.030384902 -0.20848732 -1.0472357
-0.6408874 -1.6041994 -1.6703705 0.122993745 -0.7133735 -0.03432762 -0.95352924 -0.6533226
-0.049526073 0.24536358 -1.5354202 -0.6508808 -0.008954154 -0.0004605054 -0.010960879 -0.048150554
-0.031759333 -0.084491424 0.010850006 -0.69909745 -0.11196119 -0.05727869 -1.0816 -1.0700656
-0.22856069 -0.4264961 -1.4409477 -0.02076182 0.26498172 -6.566365e-32 -0.109029375 -1.4403572
-1.6323647 -1.1467633 -0.030742684 -0.9925345 -0.3145637 -5.203999e-21 -0.0018011444 0.10143323
-0.028603546 -0.52041036 -1.046694 0.09669708 -0.9768495 -0.7557486 -0.0006782951 -0.026847472
-0.5252835 -0.007011827 0.04850454 -1.4673512 -0.5379789 -1.2425048 -1.1899866 -0.028051132
-0.06384295 -1.0178536 -0.525483 0.36632323 -1.1201328 -0.009164815 -0.046266757 0.37545848
-1.1275445 -1.4935317 -1.1572467 0.14312582 0.20269227 -0.008366591 -0.003740109 -0.01672067
-0.023560805 0.115934156 -0.79487205 0.14286147 -0.4820631 -0.82206935 -0.15546389 0.4590897
-1.0825859 -1.3735304 -0.74258137 -0.04478448 -0.049356487 -1.9395711 -0.6073015 -0.63053745

bn1.running_mean f4 [128]
00000000: 25f1 0e40 d6a9 663f 39ad ecbb 9a0b 9dbb
00000010: debd 5c00 781c 7c3f e62d b1bf e151 a53f
00000020: 940c 983e 6743 dcbe 8668 793f 51bf 19bf
00000030: 58a3 af81 5015 c6bf 9e37 473f 627e 9abe
00000040: ae90 64bf 95e2 8bbe 02f4 06bd 053c e9be
00000050: e90e 8d3e f447 a23f bc1a 50c0 cd30 1740
00000060: e0b1 8a3f 81b1 143e bc26 9d3e dece c7bc
00000070: 1558 e3bf 2bc6 2f3e 6514 e63f 1eae 0d40
00000080: f99c 6a3c 05bb 413e 7207 78ba 30f2 6ebf
00000090: 4fc5 52bf e70e 2d02 6a6e f1be b1c5 c5bf
000000a0: 1c3b d2bd 6dde f2be 02b6 bbbf 3160 1340
000000b0: 2cd7 c0bf 26e7 983d 4ea0 a13e 19b6 ef3f
000000c0: 484b 6d3d c492 113e a5b9 84bf f871 b83e
000000d0: 50d5 0300 4ea5 6c02 512c 403c 510e b53b
000000e0: f600 3182 d553 28bf 43d3 b53e d8da de3e
000000f0: 93ae 64be 533c 873e d002 e0bf 5a21 6640
00000100: 8e12 89be 7099 49bf 9524 253d c0ba a13d
00000110: ea66 cdbe 74b9 8180 f60b c13d 9c92 a4bf
00000120: aff9 98be 26ba 2440 e83a 2300 b392 b0c0
00000130: 87c3 38be 361f 0881 3400 0f01 8797 b3bf
00000140: 5e77 7c81 3f64 fa3f 3ccb 1340 ba18 9ebe
00000150: e3fc 8bbd d939 75bf 9220 3497 b02c 0f01
00000160: edd3 4440 dceb 9d3f 734c 1abd 5c4f 903e
00000170: 14e1 90be 38b6 d03f a6d9 06be 30dd 5d80
00000180: 3162 01bc e47b fa3f 5275 8c3f d1b0 df3e
00000190: ce65 3340 0ddc 8282 1f03 81bd 44fa 5a3e
000001a0: d67e e33e db9e 33c0 7fb0 273f 2513 17bd
000001b0: 4340 8240 b401 c0bf ba06 d781 59d4 d43c
000001c0: e3ed ce3c d0ce 8740 7e83 d2bd fcf1 f33f
000001d0: 92f3 963f d687 afbe 130d 7c3e e8d5 3240
000001e0: 73f1 b53f 284e 97bf 9806 fcbe 2363 efbd
000001f0: c08e 75be f25a edbe 5983 d43e ac51 033f
2.2334683 0.901029 -0.007222798 -0.004792643 8.516977e-39 0.9848094 -1.3842132 1.2915612
0.29697096 -0.43020174 0.97425115 -0.6005755 -6.4519234e-38 -1.5475254 0.7781924 -0.30174547
-0.89283264 -0.27321306 -0.032947548 -0.45553604 0.27550438 1.2678208 -3.2516317 2.3623536
1.0835533 0.14520837 0.30693614 -0.024390634 -1.7761256 0.17165439 1.7974974 2.2137523
0.014319652 0.18918999 -0.00094615587 -0.933383 -0.8233232 1.2714309e-37 -0.47154552 -1.5450956
-0.102651805 -0.47435322 -1.4664919 2.302746 -1.5065665 0.07465963 0.31567615 1.8727447
0.057933122 0.14216143 -1.0369154 0.3602445 3.52029e-40 1.7385982e-37 0.011729316 0.0055253883
-1.3004182e-37 -0.6575292 0.35512742 0.4352634 -0.2233222 0.2641321 -1.7500858 3.5957856
-0.2677197 -0.7874975 0.04031809 0.07896948 -0.4011758 -1.1913307e-38 0.094261095 -1.2857242
-0.29877993 2.5738616 3.235374e-39 -5.5179076 -0.18043338 -2.5001648e-38 2.6265098e-38 -1.4030617
-4.6370732e-38 1.9561843 2.3092794 -0.3087824 -0.06835344 -0.95791394 -5.8202246e-25 2.6297014e-38
3.075435 1.2337604 -0.037670564 0.28185546 -0.2829672 1.6305609 -0.13168964 -8.620048e-39
-0.007896946 1.9569058 1.0973303 0.43689588 2.8030887 -1.9228086e-37 -0.062994234 0.21384531
0.44432706 -2.8065708 0.65503687 -0.036883492 4.0703444 -1.500052 -7.898818e-38 0.025980162
0.025259918 4.2439957 -0.102789864 1.9058223 1.1793082 -0.34283322 0.24614362 2.7943058
1.421431 -1.1820726 -0.4922378 -0.11688831 -0.23980236 -0.46358448 0.4150646 0.51296496

bn1.running_var f4 [128]
00000000: acf9 833f 0492 813f 5e1c 0f3b ebfd 9c3a
00000010: 0400 0000 943a 803f d248 0e40 9367 0840
00000020: 078b af3d 8c54 923f 4a9f ae3f 7070 8a3f
00000030: 0400 0000 9462 f33f a260 913f aac0 1f3d
00000040: fb92 e73f 2b10 e93b a5f8 c63b 69fc 9e3f
00000050: 208a 423c 4d56 ad3f e5b0 6c40 1fa2 3440
00000060: 4ee7 933f e490 ab3f f8a1 983f d426 a83f
00000070: 9f47 973f 5d3a 983c 1365 753f 296b 2b40
00000080: 174d 263b 6a1c c33f b27c df34 2da4 ee3f
00000090: 0a89 a33e 0400 0000 3b42 863e 5ab0 a83f
000000a0: d0db 053c aca2 ba3f 3b0e fd3f 3fac 9640
000000b0: e7e8 b43f 9b4e 333a 29f0 0040 508e ac3f
000000c0: 45f5 803a 09f2 893f 256f f03f 76ec a53f
000000d0: 0400 0000 0400 0000 4ab6 be3b 0d78 003b
000000e0: 0400 0000 69a5 e93d 419c 683c 97bb 883f
000000f0: 0c7f a73f 46b9 903c 9b78 1740 4539 1940
00000100: 2cd8 393d 050e 8e3f 2d19 2d3f d22c 043b
00000110: d2b9 883d 0400 0000 f8de fb3b 207a ed3f
00000120: 7da3 ed3f 42ad f33f 0400 0000 c831 2440
00000130: 6661 b43f 0400 0000 0400 0000 0cd3 5f3e
00000140: 0400 0000 7d50 a33f bd3a a33f 3fab c13d
00000150: c18b a23f a77b 3340 0400 0000 0400 0000
00000160: 95af 9d3f 4a4b b23f 1e4d ff3b ed81 0440
00000170: 1fd3 a93f 765b 833f b70e 143e 0400 0000
00000180: 88e5 ff3b b446 803f d05a a73f c935 b23f
00000190: 4374 0240 0400 0000 e017 d33a 4c21 9d3f
000001a0: a1e5 d03f d419 ef3f 7f20 843f 3858 c43f
000001b0: b97e d040 5db0 7c3f 0400 0000 eb8f 943b
000001c0: e401 263b 37ef ce40 c00d a73f b11c 9840
000001d0: 560d 813f 609e b13f 3a4f eb3d 33f2 bc3f
000001e0: 0b08 793f 3ff8 2040 339a b93e e075 af3b
000001f0: 1138 2f3c b258 bd3f b5fb a33f 352c 1b3e
1.0310569 1.0122685 0.0021836977 0.0011977529 6e-45 1.0017877 2.2231946 2.1313217
0.08571439 1.1432052 1.3642361 1.0815563 6e-45 1.9014459 1.1357615 0.0390021
1.809173 0.007112523 0.006072121 1.242078 0.011873752 1.3541962 3.6982968 2.822395
1.1554964 1.3403592 1.1924429 1.3136849 1.1818732 0.018582517 0.9585735 2.6784155
0.002537554 1.5243046 4.1627715e-07 1.8643852 0.3194049 6e-45 0.26222405 1.3178818
0.008170083 1.4580894 1.9769968 4.708526 1.4133576 0.0006840021 2.0146582 1.348093
0.0009838721 1.0776988 1.8783919 1.2962787 6e-45 6e-45 0.0058200704 0.0019602806
6e-45 0.114085026 0.01419741 1.0682248 1.3085647 0.01766647 2.3667362 2.3941205
0.045372173 1.1098028 0.6761654 0.0020168317 0.066760674 6e-45 0.007686492 1.8552895
1.8565518 1.9037249 6e-45 2.5655384 1.4092224 6e-45 6e-45 0.21857852
6e-45 1.2758938 1.27523 0.09456491 1.26989 2.8044221 6e-45 6e-45
1.2319208 1.3929226 0.0077911755 2.07043 1.3267554 1.0262287 0.14458738 6e-45
0.0078093447 1.0021577 1.3074589 1.3922664 2.038346 6e-45 0.0016105138 1.2275786
1.6320077 1.8679757 1.0322417 1.5339422 6.515469 0.9870661 6e-45 0.004533758
0.0025330717 6.466701 1.3051071 4.7535024 1.0082195 1.3876457 0.11489721 1.4761413
0.972779 2.5151517 0.36250457 0.005354628 0.01069452 1.4792693 1.281119 0.15153582

linear2.weight f4 [64, 128]
00000000: 396c 86bf 0884 01bf 8e24 d3bc dd1a 98bc
00000010: 578b 36bc 261a 1c3e 41e6 32c0 72aa 6b3f
00000020: cc5e c6bd 2341 bf3e 9ac5 eebf 02e0 11c0
00000030: 142c c9bc a98c 89bf 93b6 d7bf 7252 46bc
00000040: 7a28 8cbf 41df 3cbb de1c 023d a76e ebbf
00000050: cf0e a93d 415c 82be 4882 e7bf 1864 85bf
00000060: ca0e ac3f 8125 d63f 0afb cbbe 2ebb 8c3f
00000070: 52c7 74bf 715e dbbc cc00 8f3d ba74 bcbf
00000080: 17c5 703d 9aba 8b3e ae88 9c00 d034 a8bf
00000090: d5ca 813d a6f8 3181 84a7 c0bd 4edc e9be
000000a0: 5026 053d 42a4 90bf dc1f 57bf 6a3a 2dbd
000000b0: 4871 0fc0 8401 293c 32e8 90bf 6119 223f
000000c0: cde4 2dbd aaba 04c0 c963 a7bf 5897 fb3e
000000d0: 1049 b200 8dae 0d20 ae76 3ebc bb7d 2a3d
000000e0: 49cd 01bd e5fa 833e d28b 58be e345 613f
000000f0: 2bd2 90be f159 1abd 936b 563e a918 823e
00000100: 4c1e ab3d 8528 f73d 6ddb a5be 3d90 28bc
00000110: 0536 72be 76bf 6e00 5a54 d13c f60c 1b3d
00000120: 4680 aebf 4d61 85bf a3e7 2180 b204 613f
00000130: d519 a23f 7200 9580 4dbc 8100 2027 133f
00000140: b371 0ebd 499d b9bf 1806 a8be 8a50 15be
00000150: 68b1 8dbf 704c a03f 43ad 4200 400b dc00
00000160: 4c23 d63d 2435 ebbc c23c 843d b984 4ebf
00000170: 8b57 dcbf 8ae4 1fbf 84eb 01bd 73b0 7800
00000180: 570a 42bb 5103 623d 1b7e b1bf ccf3 aebe
00000190: 8120 aabe 53de 8900 f63a e93c d47a 3f3e
000001a0: 287a cbbd 93e7 993f 44b8 35bf 9b92 e53e
000001b0: 877f 183f beb0 b8be 0f8d 8400 0dd8 903c
000001c0: 3258 37bd 4108 043f ee24 953f a4d1 cd3e
000001d0: 8be3 b5bb 56ec 07c0 4862 abbc 3c1a 8abe
000001e0: cdcc 6fbf e9a3 a6be fa64 3a3d 5e62 b3bd
000001f0: 3fc8 05bc 74d6 9ebf ac4b 2ec0 ab6e f03e
00000200: 52ac f03e e99e e93e 4164 9e3b eed3 ffbc
00000210: bb22 3b37 700b 2abf dfe5 453f 18b9 363f
00000220: bd78 c73c 04d9 3f3f 0d01 8e3e 111e 17be
00000230: 2d92 e83a f3e7 f0be 1208 3f3f 80cc 453e
00000240: b49a 323e 49c5 a43c de1c 02bd 1388 2ebe
00000250: 222e eabd 6a7a 6a3e 2a14 343f 70e5 1a3f
00000260: 63fe 853f 56bb a93f 5991 aa3c de07 703f
00000270: 8213 d63e 0d20 1c3d 8277 05bf dd26 423f
00000280: c0f0 81bd 6053 2c3e 80c5 8800 975f 81bf
00000290: 7804 823d 025d e780 9026 4ebf e8ff 263f
000002a0: 4ab7 07bd 29a9 b83e 12d4 77bf 4f5d 383f
000002b0: f9d7 853d 16f1 9d3b 3e2f 833f fcf2 503f
000002c0: f710 ec3c f4ad 8abd 3bd5 37bf 1e58 f43f
000002d0: ce82 9780 5224 3e1f 8f48 993a ba33 cc3c
000002e0: 58a4 fc3c 705d 23be 12cc 723d f877 3c3f
000002f0: 4a9c 5b3e 953b 053e 010e 9dbe 2a74 c23e
00000300: 07a2 78bd f2a1 713f dec9 b33d aba9 0b3c
00000310: 2d8e 54be ec3f 9680 5cda 9e3c 4e3a 88bd
00000320: 4da6 1fbf f31e 65bf 5a60 b981 43cb 1dbe
00000330: ce15 d4bd c6e0 7b80 fea8 7900 90c6 de3d
00000340: b82c ebbc 8ada 723f 5ce2 de3e 4b71 9abd
00000350: 6632 2f3e 9874 d0be 2a29 8200 803d 4780
00000360: 842c cbbe f8c5 a23e 385b 833d 2e81 eabe
00000370: 31f2 c23e 9024 5d3f 3676 83be fa5c 3700
00000380: c80f f3bd 77d3 863f 17b2 e03e 225c 7dbd
00000390: 9fb7 b2be 3f0d 8d80 c759 443d 9313 933e
000003a0: ca6a 63bf 26e6 4b3e 367a 983f 16d4 053f
000003b0: 76ca 6bbe 113c 6e3e c1f1 7f80 0aad 933c
000003c0: cdae 62bc 6050 5c3e 8265 b73f 6c92 c93e
000003d0: 30d7 f03e 1e3a f53c 2df6 cdbc db39 6f3e
000003e0: 53e0 6f3f a71e 1dbf 0f15 d73e 8383 213d
000003f0: dfe6 0a3e ec3a 23bf 6592 b83e 2466 38be
-1.0501777 -0.5059209 -0.025774267 -0.018567497 -0.01114162 0.1524435 -2.7953036 0.92056954
-0.0968605 0.37354383 -1.8654053 -2.2792974 -0.02455715 -1.0746051 -1.6852592 -0.012104617
-1.0949852 -0.0028819593 0.03176581 -1.8393143 0.08254778 -0.2546101 -1.8086634 -1.0421171
1.3442013 1.6730195 -0.39839965 1.0994623 -0.9561664 -0.026778432 0.06982574 -1.4723122
0.05878171 0.27290803 1.4375369e-38 -1.3141117 0.06337515 -3.2688162e-38 -0.09406951 -0.45675892
0.03250724 -1.1300128 -0.8403299 -0.042292036 -2.2412891 0.010315303 -1.132086 0.63319975
-0.04245453 -2.073893 -1.3077327 0.49138904 1.6372928e-38 1.2000919e-19 -0.011624975 0.041623812
-0.031689916 0.25777355 -0.21147087 0.87997264 -0.28285345 -0.03768343 0.20939474 0.2540944
0.08355388 0.12068275 -0.3239397 -0.010288295 -0.2365342 1.0170588e-38 0.025552917 0.037854157
-1.3632896 -1.0420319 -3.113667e-39 0.8789779 1.2664133 -1.3683649e-38 1.1914329e-38 0.57481575
-0.0347764 -1.4501125 -0.3281715 -0.14581504 -1.1069765 1.2523327 6.123297e-39 2.0207845e-38
0.10455951 -0.028711863 0.06456901 -0.8067127 -1.7214216 -0.624581 -0.031718746 1.1083558e-38
-0.0029608214 0.055178944 -1.3866609 -0.34170377 -0.33227924 1.2661218e-38 0.028470498 0.18699199
-0.09935409 1.2023796 -0.7098429 0.44838414 0.5956959 -0.36072344 1.2172888e-38 0.017681146
-0.044761844 0.51575094 1.1651895 0.40199006 -0.005550807 -2.1237998 -0.020920888 -0.2697314
-0.93671876 -0.3254693 0.045506455 -0.087589964 -0.008165418 -1.2409196 -2.7233686 0.46959433
0.4700647 0.4562905 0.0048337285 -0.031228986 1.1154155e-05 -0.664237 0.7730388 0.7137618
0.024349565 0.74940515 0.27735177 -0.14757563 0.0017743759 -0.47051963 0.7462169 0.19316292
0.17441827 0.020113604 -0.03176581 -0.17044096 -0.114345804 0.2289826 0.7034327 0.60506344
1.0468258 1.3260295 0.02082126 0.93762004 0.41811758 0.038116504 -0.5213548 0.7584055
-0.063447475 0.1682868 1.2560477e-38 -1.0107297 0.063485086 -2.1247365e-38 -0.8052759 0.6523423
-0.033133782 0.3606656 -0.9680797 0.7201738 0.06535334 0.0048199994 1.0248792 0.81620765
0.028816683 -0.0677146 -0.7180974 1.9089391 -1.3914084e-38 4.026411e-20 0.0011694598 0.024927009
0.030840084 -0.15953612 0.059276648 0.7362056 0.21446338 0.1301101 -0.30674747 0.3797925
-0.060701396 0.94387734 0.087787375 0.008524339 -0.20757361 -1.3798255e-38 0.019391231 -0.06651746
-0.6236313 -0.8950035 -6.8096525e-38 -0.1540957 -0.103557214 -1.13764e-38 1.1172718e-38 0.108777165
-0.028707847 0.94864714 0.43532073 -0.0754114 0.17109069 -0.40713954 1.1953381e-38 -6.542382e-39
-0.396824 0.31791663 0.06413883 -0.4580168 0.38075402 0.86383915 -0.25676125 5.084306e-39
-0.118682444 1.0533284 0.43885872 -0.061855443 -0.34905717 -1.2953557e-38 0.04793718 0.2872587
-0.8883482 0.19912013 1.1912296 0.5227674 -0.23026451 0.23265101 -1.1749833e-38 0.018026847
-0.013835621 0.21515036 1.4327853 0.39369524 0.47039175 0.029934939 -0.0251418 0.23361914
0.93701667 -0.61374897 0.42008254 0.03943206 0.13564633 -0.6376178 0.3604919 -0.18007714

linear2.bias f4 [64]
00000000: e0fa 9c3f 6f25 8d3f f010 353f d390 c1bc
00000010: 4369 9a3d 79c2 0cbf de21 04be cf1d 5fbd
00000020: ba75 b8be e319 833f e5ad 8dbe 4f0c ac3f
00000030: e2e6 453e 90da b43e 5fa8 e9bf cb5a 4c3e
00000040: 3553 babf 8224 cabf 281d 823f 6af3 fc3c
00000050: 8c89 0d3f 9f20 8abf cd30 5bbf cb8e 603f
00000060: 9adc 13bf 7a45 d03f 0c5e 91bd 7620 943e
00000070: cb73 b6bf ad69 d7be 6a41 5a3f a484 08bf
00000080: 28af 0abd b85f a23e 5c1e 223f ff7b bd3e
00000090: c992 d73f b0d5 5e3f 2037 683e 1090 b2bd
000000a0: 0ff8 d93e d935 6a3d 0270 b93e 3202 cebf
000000b0: a593 543e f432 2bbf 7f88 463f d1e9 8dbe
000000c0: 2258 363e 4cdf 69bd ab64 a1bf c992 b13f
000000d0: f693 1240 6921 923f 6c70 9dbe 8967 4e3f
000000e0: 800f a33e 7318 193f 0cf1 083d f542 fe3e
000000f0: 670f 393f 084f b7be cb40 a0bf 0a6f a0be
1.2264061 1.1027049 0.7072897 -0.023628628 0.07539608 -0.5498424 -0.12903544 -0.054471787
-0.36027318 1.0242275 -0.27671733 1.3441256 0.19326356 0.35323 -1.8254508 0.1995651
-1.4556643 -1.5792391 1.0165148 0.030877788 0.55288005 -1.0791205 -0.8562134 0.87717885
-0.57758486 1.6271203 -0.07098016 0.28931016 -1.4254087 -0.42072812 0.85256064 -0.53327394
-0.03385845 0.31713653 0.63327575 0.37008664 1.684167 0.8704481 0.22677279 -0.08718884
0.42572066 0.05718026 0.36218268 -1.609442 0.20759447 -0.66874623 0.77552027 -0.2771745
0.17807057 -0.057097718 -1.2608846 1.387292 2.2902808 1.1416446 -0.30749834 0.8062673
0.31847763 0.5980293 0.033433005 0.4966046 0.7228913 -0.35802484 -1.2519773 -0.31334716

bn2.weight f4 [64]
00000000: d36e c03f 761d 3bbf b075 ed3f ea67 d33f
00000010: 735f b73f d58e 8f3f 5b1c a13f 6e6b 623f
00000020: 26e1 693f fa2b a93e 4196 7d3f 04fa c53f
00000030: 8977 823f 4550 7a3f b11f d03f 7844 913f
00000040: 2589 993f 510b f23f d005 fb3f 3fc6 2d3f
00000050: d70a 9d3e ce21 883f 2091 a53f 270a 963f
00000060: d7df a43f c072 b23f 8f60 4c3f f8b7 ff3f
00000070: cc2f d63f 0101 913f c7e8 a43f e533 813f
00000080: e942 883f e8ff a43f 4660 a23f c0e2 fe3f
00000090: 3589 fe3f c642 2f3f 779f a73e 95c6 993e
000000a0: 54ed c23f a63f 8c3e d5e9 0ebd 6d39 8f3f
000000b0: fd62 45bf 4d97 d93f 05ac 2e3f 11ab 1140
000000c0: 5b81 943f 6205 c83f 7bdd d23f a900 b73f
000000d0: 6eb8 923f f0ea a73e 71d3 d03f 4b1e 7a3f
000000e0: a728 643f 000b 2640 3625 b33b 4d98 7a3f
000000f0: a7e1 7c3f b200 793f 0b41 503f 90c5 923f
1.5033821 -0.7309183 1.855154 1.6516087 1.4326004 1.1215464 1.2586778 0.88445175
0.91359174 0.33041364 0.99057394 1.5466924 1.0192729 0.9777873 1.6259671 1.134902
1.1994978 1.8909703 1.9611149 0.67880625 0.30672333 1.0635316 1.2934914 1.1721848
1.288081 1.3941269 0.79834837 1.9978018 1.6733336 1.1328431 1.2883538 1.0093962
1.0645419 1.2890596 1.268563 1.9912949 1.9885622 0.68461263 0.3273885 0.3003432
1.5228677 0.2739231 -0.03489097 1.11894 -0.7710417 1.6999298 0.6823123 2.276066
1.1601976 1.5626643 1.647384 1.4297076 1.1462533 0.3279643 1.6314527 0.97702473
0.8912453 2.5944214 0.0054670824 0.9788864 0.9878182 0.97266686 0.8134925 1.1466541

bn2.bias f4 [64]
00000000: 362e a0bf 96db cdbd dfed a6bf 8bf1 c83e
00000010: 17f2 863e aae5 90bf 9f43 15be 7368 46bf
00000020: a9ad f4bd 7f5e 503f 77c3 02be 5bdc 27bd
00000030: f053 24bf 15ac 9abe e33e cfbe c487 71bf
00000040: eb69 14bf ad62 64bf 849c d2bf 0c46 7dbf
00000050: 2e9e 683f 527e 44bf a503 10bf 9b94 48bf
00000060: 8894 28bf 60a4 afbe da03 4ebf ab44 933d
00000070: 7bd4 13bf f200 f23d 85de 18bf 7198 0cbf
00000080: 370b df3c e8ef 54be 77bd a7be d98b 5bbf
00000090: 6f58 09bf 357e 793d 9bfb fc3e aab0 873f
000000a0: 5800 c73d 01c5 723f 8f97 9f3d 9acb 34bf
000000b0: 8d56 913e 31f0 1bbf 574b 26be 2ad0 50bf
000000c0: 624a 98be 0370 8dbf 55ba bfbf 861f f0be
000000d0: 99fd 46be 6d84 713f b8dc 9dbf c3a1 8cbe
000000e0: c1e7 e5bd 43a0 39bf 4e4d 86bd 198b 6ebe
000000f0: 6250 5dbe de39 19bf 6968 d2be 150a f2bd
-1.2514102 -0.10051648 -1.3041342 0.39246783 0.26356575 -1.1320088 -0.14576577 -0.77503127
-0.119471855 0.8139419 -0.12769876 -0.04098163 -0.6419058 -0.30209413 -0.40477666 -0.94347787
-0.5797412 -0.8921307 -1.6454015 -0.9893501 0.90866363 -0.7675525 -0.5625556 -0.78351754
-0.6585164 -0.34305096 -0.80474627 0.07190832 -0.57746094 0.118165866 -0.5971454 -0.5492011
0.027227027 -0.20794642 -0.32761738 -0.85760266 -0.53650564 0.060911376 0.4941071 1.0600789
0.097168624 0.94831854 0.077925794 -0.7062317 0.28386346 -0.6091338 -0.16239677 -0.81567633
-0.2974425 -1.1049808 -1.4978739 -0.4689905 -0.19432677 0.9434269 -1.2332983 -0.27467164
-0.11225844 -0.72510165 -0.065577134 -0.23295249 -0.21612695 -0.59853923 -0.41095284 -0.11818329

bn2.running_mean f4 [64]
00000000: 48ac d0c0 db9a cc40 d94a 1ac1 6020 1bc1
00000010: 712b a8c0 097a c5c0 41f6 3ac1 4d1a 09c1
00000020: d9e3 4bbe fa8b a1bf f869 ccbf c77a b7c0
00000030: 7bc0 25c1 a1b3 7340 b5f5 5dbf ba67 2bbf
00000040: 48bd 03c0 4b9a fac0 3320 aac0 7400 e040
00000050: f9ee 1ac0 20bd 3cc1 ad3f 92c0 87c9 dac0
00000060: 50b1 0ac1 f9c0 a6c0 9cf8 9940 ed61 1dc1
00000070: ece6 5cc0 8d3f aec0 8717 19c1 24c2 68c1
00000080: 34ca c9c0 b374 1ac1 b1c3 1cbf 03f1 47c1
00000090: 70c9 32c1 5902 80c0 2c4c 2cc0 3d01 88c0
000000a0: 27fd cfc0 df97 23c0 0334 603f 8b1b 10c1
000000b0: 7f57 3bc0 5c27 4ac1 eec7 2140 fdc6 43c1
000000c0: fc25 10c0 5494 e0c0 a637 10c1 46b9 e5c0
000000d0: da76 803f a90d 29c0 5eea e4c0 28d0 c23d
000000e0: 39c9 1ec0 ffdd fac0 80a8 cd3d b052 08bd
000000f0: 2159 9abf 92a3 13c1 ae14 dac0 6242 5740
-6.5210304 6.3939033 -9.643273 -9.695404 -5.255303 -6.171147 -11.685121 -8.568921
-0.19911136 -1.2620842 -1.5969839 -5.7337375 -10.359492 3.8078387 -0.86703044 -0.6695515
-2.0584278 -7.8313346 -5.3164306 7.0000553 -2.4208357 -11.796173 -4.570273 -6.8371005
-8.668289 -5.211056 4.811598 -9.836408 -3.4515944 -5.4452577 -9.568244 -14.547398
-6.305933 -9.653491 -0.612361 -12.496341 -11.174179 -4.0002866 -2.6921492 -4.250151
-6.4996524 -2.5561445 0.87579364 -9.006724 -2.9272153 -12.634609 2.5278277 -12.236081
-2.2523184 -7.0181065 -9.013586 -7.1788664 1.0036271 -2.6414587 -7.1536093 0.09512359
-2.4810317 -7.839599 0.100419044 -0.033281982 -1.205845 -9.227434 -6.8150244 3.3634267

bn2.running_var f4 [64]
00000000: 9868 3042 e987 1f42 0082 1743 d73f ef42
00000010: a528 cd42 a5d1 cc41 f4ef 3643 990d 9342
00000020: fe4d ba42 0e76 5341 7a1c fb42 3056 e442
00000030: f4a6 da42 bf51 7f42 8964 4a42 835c 6642
00000040: 19e0 a142 6418 de42 8e81 d341 3b13 8d42
00000050: 20b7 ce41 31e5 d342 06bb 5542 3cf2 4342
00000060: bdc4 cc42 c32c 8442 7c47 1042 6976 d642
00000070: f3f5 8042 6a18 e342 d154 8d42 5414 1743
00000080: 878a 4843 688c 1643 0aa9 8c42 0be3 c042
00000090: fab6 3b43 5cd5 a142 a940 1a42 c1b3 be41
000000a0: b9b3 c242 a29c b141 9f49 5540 e317 2442
000000b0: 9b10 fa41 2563 8143 7c74 7e41 a432 ca42
000000c0: 2f2b 8f42 62c2 5942 957e 2542 36a0 5143
000000d0: f6cf 0043 7a9a bf41 d01b e742 2482 9b42
000000e0: 8703 ef42 c80c 8042 c91d ab3d df8f aa42
000000f0: 105e 0343 45d7 b942 17ae 6142 c1a1 0343
44.102142 39.882725 151.50781 119.62469 102.579384 25.602365 182.93732 73.52656
93.15233 13.216322 125.55562 114.168335 109.32608 63.82983 50.59818 57.590343
80.93769 111.04764 26.43826 70.53756 25.839417 105.94764 53.43264 48.986557
102.384254 66.087425 36.06981 107.23127 64.48037 113.54768 70.66566 151.0794
200.54112 150.54846 70.330154 96.44344 187.71475 80.91672 38.563145 23.83777
97.35102 22.20148 3.3326185 41.023327 31.258108 258.77457 15.903439 101.09891
71.58434 54.439827 41.373615 209.62582 128.81235 23.950428 115.55432 77.75418
119.50689 64.02496 0.083552904 85.281 131.36743 92.92045 56.42001 131.63185

linear3.weight f4 [32, 64]
00000000: 0efa e4be f131 afbf e685 35c0 f605 ebbe
00000010: 2b10 babe cf81 7f3f 3c04 bac0 4e1e 95bf
00000020: 5d04 b53e 0526 dbbd b579 58be 5ac2 12be
00000030: 9b8d 04c0 c4d9 bf3d 0c1b 2abe 77a8 a7be
00000040: 2323 2dbe 7c45 12c0 24d5 013f cb6a b6bd
00000050: a5b6 cabe 1333 2ac0 5f9a 973e 8de1 debf
00000060: 9400 23c0 ca92 b83e 0931 c23e 9d33 14be
00000070: a7f1 b3bd 1e6c b8be f3da c2bf 9879 7cbf
00000080: 24c1 c8be 0e46 acc0 8b9a 07bf 62d5 b3bf
00000090: ca3e 32bf 12c9 f73e 4f74 623d d8d6 cb3e
000000a0: 961d 57bf 9c57 603d b77c 903d ab00 b8c0
000000b0: b544 15be 7416 17be 84ea c8bf 66bf adbf
000000c0: 5d87 543c 0245 08c0 561e ddbf 0342 85bf
000000d0: d7a2 27bf 4043 7ebd 49ba 2ec0 2d5b 6abf
000000e0: bb21 88bf 80a0 2dc0 df20 fcbc fb78 b7be
000000f0: 2829 efbe 8687 7e3e 4a5c 3bbd cff1 1f3e
00000100: fcce 87bc a29e 97bc 12b5 6cbb 0f5a a1be
00000110: b45c 22be 901e cdbb f0df 39bd c30d e5ba
00000120: 4846 12bb 7885 a0bd 9a29 1d3c 89f6 81bd
00000130: 3a7c 573c 5418 d8bc 9a38 7fbd eab2 71bd
00000140: a256 5ebd 7406 663c bed5 603f db85 e93b
00000150: 23cc 09bb f18d d6bb ab15 c0ba 2a86 453c
00000160: 0fa0 23bb 153c acbc 8e62 78bd 86c9 64be
00000170: 39dd 83bd b203 0a3d ab78 5cbd 4d1e d9bc
00000180: f04b 80bb 41f8 5fbd ee39 d53b 71b9 edbd
00000190: 6e05 d3bd 43b6 6b3d e157 bcbc 2b28 cabc
000001a0: 5d19 fcbd 398e b5bc fe1e 0bbc b03f bdbc
000001b0: 8ca8 d73b 4817 d4bc 76d7 853c 7f97 54be
000001c0: e71a ae3d 8967 313c ad7b 05bd 90cd 8b3c
000001d0: 3c10 bc3d 8c71 d4bc ce9b 263c 861e 95ba
000001e0: d73c 4b3d 6cbb b1be 1e08 8080 ca2a 003c
000001f0: 2f58 ea3a a5d2 87bd c6de 71bb b130 4bb9
00000200: e85a 6cbf aa36 0d3f 8e8e 46bf 1b66 e9be
00000210: c751 c1be 30ce 053f 0ee3 353e 0f76 483f
00000220: 67a3 b3be 8e53 8abf a9cb e13d 1c40 91bf
00000230: 4c50 fc3e ce13 17bf f5e4 46be 0498 7fbe
00000240: 41e7 73be 5e52 e73e 7dec ccbf 1517 adbe
00000250: 23d5 76bf 174e 3c3f a159 1ebb d8dc 1cbf
00000260: e073 f33e 241d 5f3e e949 a03d 860e 4bbf
00000270: f6b7 b2be 01df 6ebf 3c75 d4bf db95 903f
00000280: 6015 433d 60a6 b43e 9cdd afbe f295 9c3e
00000290: 5774 803e dd40 84bf b0e8 78bf 4dcd 4abf
000002a0: 1054 c2be a6bb 41bf 30b1 0ebe 4ebb c13e
000002b0: 6b5a 10bf d6f1 913d 0f35 d73e 26c8 393f
000002c0: d818 9abe 2ffd 47bf aedc a5bf 63d6 973e
000002d0: 541c 973e b6f6 72bf e4ef 1ebf 7468 783d
000002e0: f1a7 b83e ea42 9ebe df9b d4bb bc4b 1ebd
000002f0: 7c9e 233e f316 183f 7a34 e0be 77af 99bf
00000300: fbc9 9bbe b7b5 183f 7974 80c0 0d67 03bf
00000310: 926d 0ebf bf97 2a3f 3790 2b3f 4222 ae3f
00000320: d26c b3bf 182d 85bf a1ba 4a3e 8e27 a8bf
00000330: 1cca 843f 8de5 82bf eabc e8bf 50a3 32c0
00000340: 8ca5 49bf 4345 9d3f e12a 23c0 f9f7 87bf
00000350: c722 64bf 751f 9d3f 837f a1bf 6f37 b9bf
00000360: 8ac7 243f ccd4 fbbf 1ca2 383c a3a3 08bf
00000370: 39fb fabf 911a 40bf a270 a1bf d8ff 903f
00000380: 2b73 853e 8594 253f 7e1e 23bf b36e 263f
00000390: 10e6 113f 77d2 15c0 277b 9cbf 0399 91bf
000003a0: 2b59 f2be b21f 7abf 0064 a8bd c0eb 7f3d
000003b0: 10c7 7bbf 01c0 d33d c3eb eb3e 00b5 6f3f
000003c0: 4e52 d8bf e217 88bf b498 d4bf 8662 203f
000003d0: 1be1 993e 7d45 64bf f8dd 8bbf 3a64 543e
000003e0: 3b7e a63e aa7e 5abe 6c83 21bb 014a 06bf
000003f0: e4ce db3c db38 993f 0340 75bf c744 75bf
-0.44722027 -1.3687116 -2.8362975 -0.45902985 -0.3634046 0.9980745 -5.813017 -1.1649873
0.3535489 -0.10700611 -0.21140178 -0.14331952 -2.071143 0.09367707 -0.1661188 -0.32745716
-0.16907935 -2.285491 0.5071585 -0.08907088 -0.39592472 -2.6593673 0.29609963 -1.7412583
-2.5469103 0.3604949 0.37928036 -0.14472814 -0.08786326 -0.36019987 -1.5223068 -0.9862304
-0.39209855 -5.3835516 -0.5297019 -1.4049494 -0.6962706 0.48395592 0.0552867 0.3981235
-0.8402952 0.05477105 0.070550375 -5.7500815 -0.14576991 -0.14754659 -1.5696568 -1.3574035
0.012971726 -2.129212 -1.7274883 -1.041077 -0.6548285 -0.062075853 -2.73012 -0.91545373
-1.0635294 -2.7129211 -0.030777393 -0.35834488 -0.46711087 0.24856386 -0.04574231 0.15619586
-0.01657819 -0.01850826 -0.0036118669 -0.31514022 -0.15855676 -0.006259747 -0.04537958 -0.0017475415
-0.0022319723 -0.07837957 0.009592438 -0.06345851 0.0131521765 -0.026378788 -0.06230984 -0.059008516
-0.05428184 0.0140396245 0.87826145 0.0071265525 -0.0021026216 -0.0065476825 -0.0014654895 0.012055913
-0.0024967229 -0.021024743 -0.060640864 -0.223425 -0.06438679 0.03369493 -0.053826015 -0.026503706
-0.0039153025 -0.054680113 0.00650715 -0.11607636 -0.1030377 0.057546865 -0.022991123 -0.024677357
-0.12309525 -0.022162544 -0.008491276 -0.023101658 0.0065813717 -0.025890008 0.016338091 -0.20760916
0.08501225 0.010827907 -0.03258865 0.017065793 0.09182784 -0.02593305 0.010168983 -0.0011376895
0.04961857 -0.34713304 -1.1757855e-38 0.007822702 0.0017879064 -0.06631974 -0.0036906465 -0.00019377728
-0.9232621 0.55161536 -0.7756127 -0.45585713 -0.37757704 0.5226774 0.17762396 0.78305143
-0.35085604 -1.0806749 0.11025173 -1.134769 0.49280012 -0.59014595 -0.19423278 -0.24960333
-0.23818685 0.4518003 -1.600967 -0.33806673 -0.9641897 0.73556656 -0.002416231 -0.6127448
0.47549343 0.2178846 0.07826597 -0.79319036 -0.34905976 -0.93309027 -1.6598277 1.1295732
0.047627807 0.35283184 -0.34348762 0.3058315 0.2508876 -1.0332295 -0.9723005 -0.79219514
-0.3795476 -0.75676954 -0.13934779 0.37838215 -0.56387967 0.07126205 0.42032668 0.7257103
-0.3009708 -0.781207 -1.2957971 0.29655752 0.295138 -0.949077 -0.62084794 0.06064649
0.3606563 -0.30910426 -0.006488308 -0.038646445 0.15978426 0.5941002 -0.43790036 -1.2006673
-0.30427536 0.59652275 -4.014218 -0.5132912 -0.5563594 0.66637796 0.6701693 1.3604205
-1.4017584 -1.0404387 0.19797756 -1.3137071 1.0374179 -1.0226303 -1.8182652 -2.7912178
-0.7876823 1.2286762 -2.5494921 -1.062255 -0.89115566 1.2275225 -1.2617038 -1.4470042
0.6436697 -1.9674315 0.011269119 -0.5337469 -1.9607917 -0.7504054 -1.2612498 1.1328077
0.2606443 0.6467975 -0.637184 0.65012664 0.5699167 -2.3409708 -1.2225083 -1.137482
-0.47333655 -0.97704613 -0.082221985 0.062480688 -0.9835062 0.10339356 0.4607831 0.9363556
-1.6900117 -1.0632288 -1.6609101 0.62650335 0.30054554 -0.8916853 -1.0927114 0.20741358
0.3251818 -0.21337381 -0.0024644984 -0.5245667 0.026832052 1.1970476 -0.958008 -0.9580807

linear3.bias f4 [32]
00000000: 7be2 aa3e 5d34 6b3d 7b9a 583f 00c1 2140
00000010: b398 7300 c831 cabe 777f 003f 7f6a c73f
00000020: cc0b 4230 6c3d c13f 0e2c 8f3f c8a2 8dbc
00000030: e234 263e 549a e63c 31c9 9000 037d 4400
00000040: 15f3 7800 0097 3581 929b a2bd d81c 023d
00000050: 2946 683e 4162 843f 92dd 283f 6446 b501
00000060: 1508 d63d f689 843e 68c7 7dbe 4324 72bf
00000070: 0204 82bf 9835 30bd 2edd aebd 37b3 0a3e
0.33375916 0.057422984 0.8461072 2.5274048 1.061586e-38 -0.39491105 0.50194496 1.5579375
7.0593553e-10 1.509687 1.118532 -0.017289534 0.1623111 0.028149761 1.3296485e-38 6.28966e-39
1.1107461e-38 -3.3352787e-38 -0.07939829 0.03176579 0.22683014 1.0342485 0.6596309 6.6589905e-38
0.1045076 0.25886506 -0.24783099 -0.9458658 -1.0157473 -0.04301986 -0.085382804 0.13544928

bn3.weight f4 [32]
00000000: 507c b13e c984 843e a365 7e3f c646 ba3f
00000010: 8e46 f33c 7e69 3d3f 6899 9b3f 6742 26bf
00000020: dbf1 49bc 2c05 943e 2ab3 ad3e 0121 b13b
00000030: ace6 5d3e b21f a73d 64a3 8bbb 485d 5db7
00000040: efc4 213e c236 8081 6a04 9ebe b38f 153e
00000050: 6f4e cc3e f082 7e3f 0b02 d13e 84db 7a81
00000060: 0f81 953f 4305 c23e 4e5e a43e 9c06 a93e
00000070: 4210 b73e 61c8 383e e8f7 d43e e484 843f
0.34665155 0.25882557 0.99373835 1.4552848 0.029696729 0.73989093 1.2156191 -0.6494507
-0.012325729 0.28910196 0.33925754 0.0054055457 0.21670026 0.08160342 -0.004261421 -1.3194345e-05
0.1579778 -4.709835e-38 -0.30862743 0.14605598 0.3990359 0.99418545 0.4082187 -4.6075243e-38
1.168001 0.3789464 0.321032 0.33012855 0.3575459 0.18045188 0.41595387 1.0353055

bn3.bias f4 [32]
00000000: f118 c5bd 2dd1 9abf def1 bdbf 7be8 85bf
00000010: 68e9 09be 55f5 d8bf 29c2 28bf 4a87 c9be
00000020: c843 eebd d44c 95bc b16a 63bd 77f6 4dbd
00000030: 0baf 0b3d 2fb0 0bbf fb9f fcbd eca6 9ab8
00000040: 87cb 21bf 166e b4bb d14d fc3b 28a3 e8be
00000050: b013 13be cdec 52bf a4a4 4dbd eab0 3ebc
00000060: 702c 11c0 23e7 f5bd 488f d3bd 8daa aebd
00000070: 720b b1bd bbf6 f4be 8fc8 27bd fb06 52bf
-0.09623898 -1.2095085 -1.4839437 -1.0461572 -0.13467944 -1.6949869 -0.65921265 -0.3936103
-0.11634022 -0.018225111 -0.05552167 -0.050283875 0.03410248 -0.5456571 -0.12335201 -7.374384e-05
-0.63201183 -0.0055062873 0.007699706 -0.45436978 -0.14362979 -0.8239258 -0.05020584 -0.011638859
-2.2683372 -0.120069765 -0.10330063 -0.08528624 -0.08644761 -0.4784449 -0.040962752 -0.820419

bn3.running_mean f4 [32]
00000000: 218d 7bc1 ef39 91bf 13be f4c0 b7a5 1bc1
00000010: caf3 e1bc d01f dfc0 287c 33c1 c94d 873f
00000020: fe00 30bf 70a3 3dc1 4923 08c1 a659 72be
00000030: db2f 12c0 1e6b 02be 0ec6 003e cfb2 7a26
00000040: 2dc4 c8bd 8691 ed00 4eab d640 ac1f f5bd
00000050: eff0 57c1 bc21 f1c0 ec05 57c1 454f 9e01
00000060: 674b 72c1 dcc6 3dc1 c903 52c1 dc4c 7ac1
00000070: c91f 7bc1 73ed 2bbf e659 303e 52cc 24c1
-15.721955 -1.1345805 -7.6482024 -9.727958 -0.027582068 -6.9726334 -11.217812 1.0570613
-0.68751514 -11.852402 -8.508615 -0.2366701 -2.2841709 -0.12736174 0.12575552 8.6978505e-16
-0.098030426 2.1817217e-38 6.708411 -0.119689316 -13.496322 -7.535368 -13.438946 5.815378e-38
-15.143409 -11.86105 -13.125924 -15.6437645 -15.69526 -0.67159194 0.17221794 -10.299883

bn3.running_var f4 [32]
00000000: 3f43 3443 b4fa 613f 2ebf aa41 03c7 8d42
00000010: f156 953d 58b6 9741 f13c 5642 fc79 5641
00000020: 5d66 a53e 53c9 4543 4d6f 0b43 393f e93d
00000030: 7d0d 9c40 467f ee3e 1c2d f73d bc0d d610
00000040: d155 203e 0400 0000 c3d7 5442 c4e3 023e
00000050: 161c a643 f434 af42 aa8d b443 0400 0000
00000060: 5490 4942 d14e 7043 fd8d 4542 0585 2443
00000070: 4e0a 0243 ec0e 0940 9889 ed3f aac8 ec41
180.26268 0.8827317 21.34335 70.888695 0.072919734 18.964035 53.559513 13.404781
0.3230466 197.78642 139.43477 0.11389012 4.8766465 0.46581477 0.12069151 8.442928e-29
0.15657736 6e-45 53.210705 0.12782198 332.21942 87.603424 361.10675 6e-45
50.390945 240.30788 49.38866 164.5196 130.04025 2.1415358 1.8557615 29.59798
